Used seed : 1
Loaded pre-trained alexnet model
Changed the last layer to have 1639 output shape
Freezed all the layers except the last layer
DataParallel(
  (module): AlexNet(
    (features): Sequential(
      (0): Conv2d(3, 64, kernel_size=(11, 11), stride=(4, 4), padding=(2, 2))
      (1): ReLU(inplace=True)
      (2): MaxPool2d(kernel_size=3, stride=2, padding=0, dilation=1, ceil_mode=False)
      (3): Conv2d(64, 192, kernel_size=(5, 5), stride=(1, 1), padding=(2, 2))
      (4): ReLU(inplace=True)
      (5): MaxPool2d(kernel_size=3, stride=2, padding=0, dilation=1, ceil_mode=False)
      (6): Conv2d(192, 384, kernel_size=(3, 3), stride=(1, 1), padding=(1, 1))
      (7): ReLU(inplace=True)
      (8): Conv2d(384, 256, kernel_size=(3, 3), stride=(1, 1), padding=(1, 1))
      (9): ReLU(inplace=True)
      (10): Conv2d(256, 256, kernel_size=(3, 3), stride=(1, 1), padding=(1, 1))
      (11): ReLU(inplace=True)
      (12): MaxPool2d(kernel_size=3, stride=2, padding=0, dilation=1, ceil_mode=False)
    )
    (avgpool): AdaptiveAvgPool2d(output_size=(6, 6))
    (classifier): Sequential(
      (0): Dropout(p=0.5, inplace=False)
      (1): Linear(in_features=9216, out_features=4096, bias=True)
      (2): ReLU(inplace=True)
      (3): Dropout(p=0.5, inplace=False)
      (4): Linear(in_features=4096, out_features=4096, bias=True)
      (5): ReLU(inplace=True)
      (6): Sequential(
        (0): Linear(in_features=4096, out_features=2000, bias=True)
        (1): ReLU(inplace=True)
        (2): Linear(in_features=2000, out_features=500, bias=True)
        (3): ReLU(inplace=True)
        (4): Linear(in_features=500, out_features=100, bias=True)
        (5): ReLU(inplace=True)
        (6): Linear(in_features=100, out_features=1639, bias=True)
      )
    )
  )
)
AlexNet created
train created
lenght of debug dataset is: 5119
unique classes are: 86
{0: 4865, 1: 3090, 2: 4757, 3: 871, 4: 4281, 5: 2267, 6: 4861, 7: 4845, 8: 3521, 9: 1364, 10: 4410, 11: 4130, 12: 1627, 13: 3953, 14: 4888, 15: 4885, 16: 4517, 17: 3201, 18: 2225, 19: 3072, 20: 4733, 21: 3161, 22: 603, 23: 895, 24: 4811, 25: 4804,
…
